----------------------------------------------------------------
        Layer (type)               Output Shape         Param #
================================================================
         Embedding-1             [-1, 200, 100]       7,616,400
            Conv2d-2          [-1, 100, 198, 1]          30,100
            Conv2d-3          [-1, 100, 197, 1]          40,100
            Conv2d-4          [-1, 100, 196, 1]          50,100
           Dropout-5                  [-1, 300]               0
            Linear-6                    [-1, 5]           1,505
================================================================
Total params: 7,738,205
Trainable params: 7,738,205
Non-trainable params: 0
----------------------------------------------------------------
Input size (MB): 0.00
Forward/backward pass size (MB): 0.61
Params size (MB): 29.52
Estimated Total Size (MB): 30.13
----------------------------------------------------------------


Hyperparameters config:
…
